_________________________________________________________________
 Layer (type)                Output Shape              Param #
=================================================================
 conv1d (Conv1D)             (None, 2046, 16)          64

 conv1d_1 (Conv1D)           (None, 2044, 16)          784

 max_pooling1d (MaxPooling1D  (None, 681, 16)          0
 )

 conv1d_2 (Conv1D)           (None, 679, 64)           3136

 conv1d_3 (Conv1D)           (None, 677, 64)           12352

 max_pooling1d_1 (MaxPooling  (None, 225, 64)          0
 1D)

 conv1d_4 (Conv1D)           (None, 223, 64)           12352

 conv1d_5 (Conv1D)           (None, 221, 64)           12352

 max_pooling1d_2 (MaxPooling  (None, 73, 64)           0
 1D)

 flatten (Flatten)           (None, 4672)              0

 dense (Dense)               (None, 1)                 4673

=================================================================
Total params: 45,713
Trainable params: 45,713
Non-trainable params: 0
_________________________________________________________________
None
Epoch 1/200
792/792 [==============================] - 4s 4ms/step - loss: 2.5517 - mse: 2.5517
Epoch 2/200
792/792 [==============================] - 3s 4ms/step - loss: 2.1704 - mse: 2.1704
…
